Model architecture:
 IdentifyMarkerTimeIndptTransformer(
  (flatten): Flatten(start_dim=1, end_dim=-1)
  (src_in_embed_layer): BirdEmbedding(
    (proj): Linear(in_features=96, out_features=1024, bias=True)
    (flatten): Flatten(start_dim=1, end_dim=-1)
  )
  (tgt_in_embed_layer): BirdEmbedding(
    (proj): Linear(in_features=24, out_features=256, bias=True)
    (flatten): Flatten(start_dim=1, end_dim=-1)
  )
  (out_embed_layer): BirdEmbedding(
    (proj): Linear(in_features=256, out_features=24, bias=True)
    (flatten): Flatten(start_dim=1, end_dim=-1)
  )
  (transformer): Transformer(
    (encoder): TransformerEncoder(
      (layers): ModuleList(
        (0-2): 3 x TransformerEncoderLayer(
          (self_attn): MultiheadAttention(
            (out_proj): NonDynamicallyQuantizableLinear(in_features=32, out_features=32, bias=True)
          )
          (linear1): Linear(in_features=32, out_features=128, bias=True)
          (dropout): Dropout(p=0.1, inplace=False)
          (linear2): Linear(in_features=128, out_features=32, bias=True)
          (norm1): LayerNorm((32,), eps=1e-05, elementwise_affine=True)
          (norm2): LayerNorm((32,), eps=1e-05, elementwise_affine=True)
          (dropout1): Dropout(p=0.1, inplace=False)
          (dropout2): Dropout(p=0.1, inplace=False)
        )
      )
      (norm): LayerNorm((32,), eps=1e-05, elementwise_affine=True)
    )
    (decoder): TransformerDecoder(
      (layers): ModuleList(
        (0-2): 3 x TransformerDecoderLayer(
          (self_attn): MultiheadAttention(
            (out_proj): NonDynamicallyQuantizableLinear(in_features=32, out_features=32, bias=True)
          )
          (multihead_attn): MultiheadAttention(
            (out_proj): NonDynamicallyQuantizableLinear(in_features=32, out_features=32, bias=True)
          )
          (linear1): Linear(in_features=32, out_features=128, bias=True)
          (dropout): Dropout(p=0.1, inplace=False)
          (linear2): Linear(in_features=128, out_features=32, bias=True)
          (norm1): LayerNorm((32,), eps=1e-05, elementwise_affine=True)
          (norm2): LayerNorm((32,), eps=1e-05, elementwise_affine=True)
          (norm3): LayerNorm((32,), eps=1e-05, elementwise_affine=True)
          (dropout1): Dropout(p=0.1, inplace=False)
          (dropout2): Dropout(p=0.1, inplace=False)
          (dropout3): Dropout(p=0.1, inplace=False)
        )
      )
      (norm): LayerNorm((32,), eps=1e-05, elementwise_affine=True)
    )
  )
)
Epoch 1
-------------------------------
loss: 0.080439  [ 1900/18919] (10%)
loss: 0.047123  [ 3790/18919] (20%)
loss: 0.032804  [ 5680/18919] (30%)
loss: 0.028479  [ 7570/18919] (40%)
loss: 0.023885  [ 9460/18919] (50%)
loss: 0.022737  [11350/18919] (59%)
loss: 0.020794  [13240/18919] (69%)
loss: 0.024771  [15130/18919] (79%)
loss: 0.022287  [17020/18919] (89%)
…
