Model architecture:
 IdentifyMarkerTimeIndptTransformer(
  (flatten): Flatten(start_dim=1, end_dim=-1)
  (src_in_embed_layer): BirdEmbedding(
    (proj): Linear(in_features=96, out_features=1024, bias=True)
    (flatten): Flatten(start_dim=1, end_dim=-1)
  )
  (tgt_in_embed_layer): BirdEmbedding(
    (proj): Linear(in_features=24, out_features=256, bias=True)
    (flatten): Flatten(start_dim=1, end_dim=-1)
  )
  (out_embed_layer): BirdEmbedding(
    (proj): Linear(in_features=256, out_features=24, bias=True)
    (flatten): Flatten(start_dim=1, end_dim=-1)
  )
  (transformer): Transformer(
    (encoder): TransformerEncoder(
      (layers): ModuleList(
        (0-1): 2 x TransformerEncoderLayer(
          (self_attn): MultiheadAttention(
            (out_proj): NonDynamicallyQuantizableLinear(in_features=32, out_features=32, bias=True)
          )
          (linear1): Linear(in_features=32, out_features=128, bias=True)
          (dropout): Dropout(p=0.1, inplace=False)
          (linear2): Linear(in_features=128, out_features=32, bias=True)
          (norm1): LayerNorm((32,), eps=1e-05, elementwise_affine=True)
          (norm2): LayerNorm((32,), eps=1e-05, elementwise_affine=True)
          (dropout1): Dropout(p=0.1, inplace=False)
          (dropout2): Dropout(p=0.1, inplace=False)
        )
      )
      (norm): LayerNorm((32,), eps=1e-05, elementwise_affine=True)
    )
    (decoder): TransformerDecoder(
      (layers): ModuleList(
        (0-1): 2 x TransformerDecoderLayer(
          (self_attn): MultiheadAttention(
            (out_proj): NonDynamicallyQuantizableLinear(in_features=32, out_features=32, bias=True)
          )
          (multihead_attn): MultiheadAttention(
            (out_proj): NonDynamicallyQuantizableLinear(in_features=32, out_features=32, bias=True)
          )
          (linear1): Linear(in_features=32, out_features=128, bias=True)
          (dropout): Dropout(p=0.1, inplace=False)
          (linear2): Linear(in_features=128, out_features=32, bias=True)
          (norm1): LayerNorm((32,), eps=1e-05, elementwise_affine=True)
          (norm2): LayerNorm((32,), eps=1e-05, elementwise_affine=True)
          (norm3): LayerNorm((32,), eps=1e-05, elementwise_affine=True)
          (dropout1): Dropout(p=0.1, inplace=False)
          (dropout2): Dropout(p=0.1, inplace=False)
          (dropout3): Dropout(p=0.1, inplace=False)
        )
      )
      (norm): LayerNorm((32,), eps=1e-05, elementwise_affine=True)
    )
  )
)
Epoch 1
-------------------------------
loss: 0.062188  [ 2820/28181] (10%)
loss: 0.036580  [ 5640/28181] (20%)
loss: 0.031385  [ 8460/28181] (30%)
loss: 0.026262  [11280/28181] (40%)
loss: 0.029401  [14090/28181] (49%)
loss: 0.019419  [16910/28181] (60%)
loss: 0.020375  [19730/28181] (70%)
loss: 0.020605  [22550/28181] (80%)
loss: 0.020820  [25370/28181] (90%)
…
